outputs/models/best_model.pth (torch, 224422 bytes, 6 tensors)

model.0.weight f4 [256, 81]
-0.019805618 0.0767042 0.0071975663 0.04818041 -0.013666354 -0.038821407 0.041612126 0.051157244
-0.03397266 0.030264802 -0.008395165 -0.07752711 -0.08147379 0.1003137 -0.012859136 0.013320208
-0.023627825 -0.09890085 0.0026278868 -0.08688173 0.060516022 0.09899036 -0.069573656 -0.072719365
-0.049229223 -0.034264773 0.01872965 -0.07341543 0.057943247 0.041490503 -0.08559962 -0.0872082
0.03402374 0.088468395 -0.10901017 0.08083554 -0.060480647 0.055351608 -0.07188305 -0.026046515
0.065722235 -0.012054972 0.0312948 -0.02323997 -0.06842613 0.09275558 0.017927997 -0.037118822
-0.05654143 0.0022306591 -0.10512616 0.09636081 0.05344128 0.037321456 0.03827905 0.10123492
0.07170082 -0.072999425 0.09003235 -0.070315674 -0.107680954 -0.10082737 -0.09512547 0.036141448
0.006318398 -0.0070655867 -0.027579188 -0.07870041 -0.00976561 -0.024630636 -0.056316655 0.100617014
-0.047623597 0.09856952 0.01586672 0.0031154156 -0.089447975 0.09610712 0.08708901 0.013699651
-0.051691625 -0.036444597 -0.05519463 -0.09040136 -0.023301043 0.049817123 0.061999924 0.023891889
-0.062584706 0.07405322 -0.07616535 -0.021664739 0.103829645 0.08835656 0.044687875 -0.016392313
-0.107425384 -0.10979451 0.026384093 0.0028924942 -0.10467149 0.052534513 -0.0017344803 -0.08621423
-0.041867293 -0.0391635 0.04382495 -0.05757406 0.049879216 0.057683803 -0.050192542 0.081108175
0.003882274 -0.0021402463 0.10572616 -0.0733749 -0.03857895 0.0075245798 0.015520297 -0.1019869
-0.025575124 0.021164037 0.01453758 -0.042922445 -0.031106777 -0.06307823 0.020795785 -0.0052790344
-0.06133612 0.090710424 0.0051458925 -0.10310117 -0.07963908 -0.09533058 -0.029807806 0.0775542
0.037050255 0.067352615 -0.0069796145 -0.0727174 0.09080712 0.05071474 -0.049932122 -0.089696474
0.009895101 0.032884143 0.0640245 -0.0804483 0.024516977 0.0660037 0.10378084 0.092620276
0.079078265 -0.03675972 0.029111959 0.08771572 0.049177103 -0.0077945516 -0.004193425 -0.029308707
-0.03919527 -0.046348423 0.040895052 -0.05241671 0.099068604 -0.022705913 -0.08262612 0.030014582
0.020108871 0.08236756 0.08041417 0.061259992 0.07756279 -0.021761283 0.04070186 -0.08580107
-0.087686725 -0.07202624 0.06009505 -0.0931086 -0.076072246 -0.09160369 -0.010031357 -0.006034918
-0.019746542 -0.051319588 0.01890912 0.047351174 0.054259054 0.044554345 0.07624855 -0.03313727
0.10197293 -0.07541601 0.015149228 -0.015096992 -0.09762868 0.07921574 0.073706545 -0.002819933
-0.0101213455 0.015280075 -0.09284193 0.053347938 0.032507114 -0.018841319 -0.028951563 -0.07121641
0.024148397 0.08002948 0.06124682 0.09981505 -0.018909723 0.011990838 -0.007932559 -0.013695918
0.055900462 -0.09008707 0.08374625 -0.06621856 -0.031391397 -0.0031520426 -0.01256308 -0.10666541
0.079422526 -0.046436176 0.08788101 -0.07352193 0.010234766 -0.06992841 -0.012264013 -0.10677811
0.032112025 0.011888675 0.096570544 0.012613855 0.07693445 -0.0064196587 -0.07191454 0.09353305
-0.012717977 0.027108885 0.039427184 0.032329388 0.053517558 0.03133156 0.01358965 -0.029416837
-0.07210219 0.10506333 0.03778822 0.044523977 -0.040455543 -0.04591436 0.103309594 0.021073036
00000000: 643f a2bc 1717 9d3d 90d9 eb3b d258 453d
00000010: d8e8 5fbc 3203 1fbd 7a71 2a3d 428a 513d
00000020: ea26 0bbd e4ed f73c e08b 09bc 89c6 9ebd
00000030: bbdb a6bd 4571 cd3d 20af 52bc 003d 5a3c
00000040: 248f c1bc 878c cabd a038 2c3b 0cef b1bd
00000050: a6df 773d 75bb ca3d a27c 8ebd e4ed 94bd
00000060: 95a4 49bd 3859 0cbd ec6e 993c d45a 96bd
00000070: e655 6d3d f2f1 293d db4e afbd 369a b2bd
00000080: 7a5c 0b3d eb2e b53d b940 dfbd 1b8d a53d
00000090: 8eba 77bd 5eb8 623d 6c37 93bd 805f d5bc
000000a0: 6199 863d 3882 45bc fa2e 003d c061 bebc
000000b0: 0023 8cbd a3f6 bd3d bcdd 923c e809 18bd
000000c0: fd97 67bd 4030 123b 624c d7bd d158 c53d
000000d0: 3ee5 5a3d 62de 183d 7eca 1c3d 4154 cf3d
000000e0: e1d7 923d b980 95bd e162 b83d aa01 90bd
000000f0: d587 dcbd 957e cebd 24d1 c2bd 0e09 143d
00000100: 900a cf3b 7086 e7bb c0ed e1bc ae2d a1bd
00000110: f0ff 1fbc 30c6 c9bc 4bac 66bd 4b10 ce3d
00000120: f610 43bd d1de c93d ecfa 813c 002c 4c3b
00000130: 8030 b7bd cfd3 c43d b95b b23d 8074 603c
00000140: 99ba 53bd ee46 15bd c413 62bd 5924 b9bd
00000150: d4e1 bebc 0a0d 4c3d a2f3 7d3d ecb8 c33c
00000160: 692c 80bd 37a9 973d 94fc 9bbd 407a b1bc
00000170: a3a4 d43d 49f4 b43d a20a 373d 2c49 86bc
00000180: d701 dcbd f2db e0bd 7423 d83c 0090 3d3b
00000190: 025e d6bd 6e2e 573d 8057 e3ba 1691 b0bd
000001a0: 0a7d 2bbd e869 20bd ca81 333d c7d2 6bbd
000001b0: 264e 4c3d da45 6c3d b296 4dbd 0b1c a63d
000001c0: c06d 7e3b 6043 0cbb f586 d83d 9445 96bd
000001d0: f604 1ebd c090 f63b d848 7e3c 82de d0bd
000001e0: ec82 d1bc 3460 ad3c 082f 6e3c 72cf 2fbd
000001f0: a4d3 febc 292f 81bd ec5b aa3c c0fb acbb
00000200: 953b 7bbd 63c6 b93d e09e a83b b526 d3bd
00000210: d019 a3bd ae3c c3bd 802f f4bc bdd4 9e3d
00000220: 02c2 173d 2bf0 893d 40b5 e4bb dcec 94bd
00000230: 15f9 b93d 42ba 4f3d a085 4cbd c9b2 b7bd
00000240: 101f 223c 86b1 063d 471f 833d 14c2 a4bd
00000250: d4d7 c83c f32c 873d 0d8b d43d b3af bd3d
00000260: c9f3 a13d 5c91 16bd 347c ee3c 4da4 b33d
00000270: ee6d 493d 7069 ffbb 0069 89bb d018 f0bc
00000280: 388b 20bd d8d7 3dbd 9281 273d e7b2 56bd
00000290: 7be4 ca3d c001 babc e237 a9bd 24e1 f53c
000002a0: 5cbb a43c 53b0 a83d 2fb0 a43d c2eb 7a3d
000002b0: 3dd9 9e3d b844 b2bc feb6 263d 79b8 afbd
000002c0: 1995 b3bd 7e82 93bd 3a26 763d b9af bebd
000002d0: c4cb 9bbd b79a bbbd 905a 24bc 90c0 c5bb
000002e0: 80c3 a1bc 7d34 52bd 4ce7 9a3c 4ef3 413d
000002f0: be3e 5e3d 9e7e 363d 3328 9c3d f2ba 07bd
00000300: 2fd7 d03d b673 9abd 7834 783c 6059 77bc
00000310: 8cf1 c7bd dd3b a23d 75f3 963d a0ce 38bb
00000320: 00d4 25bc 4859 7a3c e923 bebd 5e83 5a3d
00000330: 2e26 053d 1c59 9abc d42b edbc e9d9 91bd
00000340: dcd2 c53c 7fe6 a33d f2dd 7a3d d56b cc3d
00000350: 90e8 9abc 3875 443c 90f7 01bc d864 60bc
00000360: e2f7 643d 927f b8bd 2783 ab3d 999d 87bd
00000370: 4494 00bd 8092 4ebb 60d5 4dbc 6573 dabd
00000380: 47a8 a23d dc33 3ebd f5fa b33d aa92 96bd
00000390: b8af 273c a036 8fbd 00ef 48bc 7bae dabd
000003a0: e687 033d b8c8 423c c7c6 c53d 58aa 4e3c
000003b0: cf8f 9d3d 005c d2bb ee47 93bd 418e bf3d
000003c0: 105f 50bc 7413 de3c 667e 213d d26b 043d
000003d0: 3a35 5b3d 8655 003d 20a7 5e3c 94fb f0bc
000003e0: 50aa 93bd 712b d73d d2c7 1a3d c65e 363d
000003f0: b6b4 25bd b210 3cbd fb93 d33d 5ca1 ac3c

model.0.bias f4 [256]
0.0011365116 -0.07269129 0.047040947 0.048565768 0.0017872229 -0.09413319 -0.07100114 -0.08352855
-0.05990953 -0.0959819 -0.08218222 0.010894746 -0.09749004 -0.07256405 -0.029676288 -0.0227938
0.00018450618 -0.01657018 0.05109433 -0.058675688 0.0391059 0.07167787 0.021720417 0.0067548454
-0.07505004 0.0750022 0.094979145 0.07371379 -0.06770174 0.11056668 -0.09155534 0.06855007
0.029829018 -0.051849935 -0.032516055 0.061334662 -0.10056034 0.025811441 -0.04082314 -0.03632266
0.019246317 0.10280878 -0.05582415 0.026074015 -0.009205788 0.027303003 0.11066236 0.08084541
0.023616485 -0.07045155 0.00037103146 -0.022793017 0.024579413 -0.039558664 0.014419489 -0.048398167
0.08216701 0.053108074 -0.010282174 0.097474314 0.037793316 0.049034916 -0.06611261 -0.09535844
-0.06548149 0.002604708 -0.103791155 -0.061289974 0.10630884 -0.019895755 -0.06223423 -0.08674464
0.006060444 0.089194305 0.065570585 0.07862944 -0.027141519 -0.074467376 -0.036453873 -0.04327652
-0.0013690889 0.045973696 0.10492604 -0.046824843 0.053963684 -0.06458466 -0.019087777 -0.09676626
-0.0490333 -0.105579175 0.009728871 0.06962515 -0.023493715 -0.10187677 -0.030626878 0.09921271
0.018251665 -0.049487036 0.043572985 -0.020794071 0.09006355 0.09786535 0.1063352 0.05734528
0.09187914 0.10954677 0.01643791 -0.054592066 0.10137952 0.09228546 -0.039254427 0.004676737
-0.046101384 -0.07264654 -0.048401818 -0.03246498 0.043627627 0.06296504 0.0898413 -0.015306063
-0.091648474 0.06862108 -0.075087935 0.009102382 0.10771025 -0.041767836 0.09237466 0.10790814
0.026310615 -0.008879051 -0.046665996 -0.066400476 0.0688616 -0.03512997 -0.09061174 -0.0003842637
-0.0930461 -0.10695008 -0.004253775 0.058645763 0.09455866 0.03732858 -0.02705852 0.09162205
-0.0020319596 -0.018714756 0.100633554 0.100828536 -0.07804456 0.0548288 0.058534496 -0.048724174
-0.029738277 0.014672823 -0.024038568 0.03441786 0.04151476 0.10879288 0.034981973 -0.049274165
0.051166378 -0.05962397 -0.09786752 -0.10054154 -0.07050952 -0.011541128 0.041864388 0.017617323
-0.05866521 -0.067648426 0.06217637 -0.0034625009 0.04319463 0.03687232 -0.06557621 0.011857629
-0.06729312 0.07560591 -0.022289246 0.10758605 0.0007504225 -0.07797088 0.098833285 0.015434854
-0.108271785 0.030059211 0.07073534 0.07614867 0.108058445 0.047933973 -0.013592295 0.10110452
0.0492884 -0.08052911 0.0050058886 0.031975247 0.035669945 -0.064729795 -0.084742695 -0.0011755526
-0.02591671 -0.037905067 0.052908875 0.03627356 -0.06296264 -0.03422054 0.09436076 -0.009798102
0.03772583 -0.031282812 0.0774261 0.015908055 -0.03963346 -0.05782514 0.05484817 0.066929586
-0.09242627 0.098338015 -0.08166985 0.02465827 -0.019108973 0.06454564 0.06414462 0.01635968
0.099413775 0.0042562187 -0.0068577826 -0.02437523 0.103340276 0.011854239 -0.09672027 -0.06869826
-0.10348299 -0.00030055642 0.09076763 -0.10846506 0.089478366 -0.034096465 -0.098904915 -0.026351243
-0.0022380054 -0.06833868 0.084460236 -0.079585925 -0.09113018 -0.009813495 0.07718838 -0.00028900057
0.104089536 0.008633286 0.023977183 -0.104141265 -0.038446188 0.105994396 0.019603364 0.03642609
00000000: 00f7 943a 2cdf 94bd 02ae 403d e6ec 463d
00000010: 4041 ea3a e7c8 c0bd 0c69 91bd 0411 abbd
00000020: b263 75bd 2992 c4bd 274f a8bd e07f 323c
00000030: dca8 c7bd 769c 94bd b01b f3bc 10ba babc
00000040: 0078 4139 30be 87bc 4a48 513d eb55 70bd
00000050: 822d 203d d9cb 923d 04ef b13c c057 dd3b
00000060: d6b3 99bd c19a 993d 6d84 c23d 41f7 963d
00000070: 36a7 8abd c970 e23d 5e81 bbbd fb63 8c3d
00000080: fc5b f43c 9960 54bd 8e2f 05bd 0e3a 7b3d
00000090: 94f2 cdbd 8472 d33c 2a36 27bd 12c7 14bd
000000a0: 74aa 9d3c 698d d23d dda7 64bd 2c99 d53c
000000b0: e0d3 16bc 8caa df3c f3a2 e23d 4792 a53d
000000c0: 5c77 c13c e748 90bd 0087 c239 6cb8 babc
000000d0: c45a c93c 4408 22bd b83f 6c3c 283d 46bd
000000e0: 2d47 a83d da87 593d 9076 28bc 9da0 c73d
000000f0: 2acd 1a3d d6d8 483d 0c66 87bd 494b c3bd
00000100: 291b 86bd c0b3 2a3b 7590 d4bd 320b 7bbd
00000110: 73b8 d93d 6cfc a2bc 52e9 7ebd 2ca7 b1bd
00000120: b096 c63b 81ab b63d df49 863d 7908 a13d
00000130: e457 debc 5a82 98bd a850 15bd b842 31bd
00000140: 0073 b3ba ea4e 3c3d 77e3 d63d 68cb 3fbd
00000150: 0609 5d3d f644 84bd f85d 9cbc 642d c6bd
00000160: 24d7 48bd e539 d8bd d865 1f3c a197 8e3d
00000170: e475 c0bc c5a4 d0bd 38e5 fabc 0930 cb3d
00000180: 8484 953c ebb2 4abd 9679 323d 5458 aabc
00000190: 3d73 b83d a16d c83d 45c6 d93d e2e2 6a3d
000001a0: 212b bc3d 0f5a e03d cca8 863c ee9b 5fbd
000001b0: 11a0 cf3d 2900 bd3d 40c9 20bd 503f 993b
000001c0: ced4 3cbd b6c7 94bd fc40 46bd 00fa 04bd
000001d0: e2b2 323d d1f3 803d b7fe b73d 48c6 7abc
000001e0: 32b2 bbbd 3589 8c3d b4c7 99bd 2822 153c
000001f0: 3197 dc3d c014 2bbd ed2e bd3d f1fe dc3d
00000200: 5c89 d73c 7079 11bc d824 3fbd f9fc 87bd
00000210: 4f07 8d3d 72e4 0fbd a692 b9bd 0077 c9b9
00000220: f48e bebd a508 dbbd 4063 8bbb 8a36 703d
00000230: f9a7 c13d dae5 183d d4a9 ddbc 57a4 bb3d
00000240: a02a 05bb b04f 99bc f718 ce3d 317f ce3d
00000250: d4d5 9fbd 2a94 603d dec1 6f3d 0093 47bd
00000260: b09d f3bc 4866 703c 88ec c4bc bef9 0c3d
00000270: 620b 2a3d cdce de3d 4249 0f3d b5d3 49bd
00000280: d693 513d 4438 74bd c46e c8bd b9e8 cdbd
00000290: 4c67 90bd 0017 3dbc fe79 2b3d 3452 903c
000002a0: ee4a 70bd 428b 8abd a6ac 7e3d 20eb 62bb
000002b0: daec 303d 6e07 173d d24c 86bd 8046 423c
000002c0: fad0 89bd 45d7 9a3d f097 b6bc 1356 dc3d
000002d0: 00b8 443a 32af 9fbd 1b69 ca3d 78e2 7c3c
000002e0: 99bd ddbd bc3e f63c b1dd 903d d5f3 9b3d
000002f0: bf4d dd3d 6a56 443d 38b2 5ebc e30f cf3d
00000300: a2e2 493d 72ec a4bd 7008 a43b 7af8 023d
00000310: a61a 123d 0e91 84bd 948d adbd 0015 9aba
00000320: 484f d4bc 5842 1bbd fab6 583d 9693 143d
00000330: 8ef2 80bd d62a 0cbd 3740 c13d 3888 20bc
00000340: 6686 1a3d 6822 00bd 9391 9e3d 9c51 823c
00000350: b256 22bd 0eda 6cbd 7aa8 603d 6112 893d
00000360: fc49 bdbd 7165 c93d 8642 a7bd 2400 ca3c
00000370: 6c8a 9cbc 8130 843d 415e 833d bc04 863c
00000380: 7399 cb3d c077 8b3b 40b7 e0bb 90ae c7bc
00000390: 11a4 d33d 4838 423c 4715 c6bd acb1 8cbd
000003a0: e4ee d3bd 0094 9db9 61e4 b93d ee22 debd
000003b0: 6f40 b73d bca8 0bbd a98e cabd 90de d7bc
000003c0: 80ab 12bb 26f5 8bbd 7df9 ac3d f2fd a2bd
000003d0: 76a2 babd c8c8 20bc f114 9e3d 0085 97b9
000003e0: e52c d53d a072 0d3c cc6b c43c 0448 d5bd
000003f0: c079 1dbd 9713 d93d 3c97 a03c 8633 153d

model.2.weight f4 [128, 256]
-0.040613346 -0.0019102097 -0.056362204 0.017946213 -0.0076239705 -0.012578793 0.044191323 -0.04036533
-0.034746714 0.015877545 0.046153046 0.047785647 -0.00017588586 0.027476706 -0.052342646 0.0016293824
-0.041561343 -0.012971908 0.04729312 -0.054028697 -0.057065688 -0.047136396 -0.028601266 0.030035682
-0.000532791 0.04432103 0.008889668 -0.00959266 0.06124591 -0.04454709 -0.02564837 0.042001374
0.018693767 -0.061346143 -0.045503184 0.0067872107 0.012744248 0.015831128 0.008590318 -0.042020492
-0.004716024 0.01490929 0.062080868 0.05390071 0.05872102 -0.034258112 0.027757436 -0.00588648
0.036298566 -0.034981348 0.028418072 0.013091616 0.024216868 -0.04156342 -0.038050883 0.03962592
0.04819043 0.057347737 -0.004739277 0.032390334 -0.008263014 0.018574163 0.041585922 -0.053866193
-0.029537901 -0.018196002 0.056350425 0.019623175 0.010057755 0.01100646 -0.01992011 0.037967145
0.0012513995 0.025349751 0.04024791 -0.013190158 0.06164579 0.04895225 -0.007972866 0.0068334714
-0.029336527 0.025163114 -0.039754108 -0.022128835 0.03635671 -0.0013582483 -0.02826491 0.050115265
0.03895779 0.0065213367 -0.0059175864 0.06248097 0.042216495 -0.0042185187 0.039188176 0.050325543
0.061148778 -0.0077068508 0.05777394 0.007620007 -0.046075523 -0.014724188 -0.011586852 0.023999706
0.0071982965 0.04235194 0.014332429 0.0058999807 0.0057608634 -0.018614225 -0.018721916 -0.050364353
-0.042414926 0.010058217 0.023881108 -0.015366189 -0.045425117 -0.02024673 -0.007127434 -0.006250657
-0.0057798997 0.050044723 0.0273505 -0.052194454 -0.0047470853 0.029016033 -0.03194323 0.009001978
-0.030540995 0.04836674 0.023427121 0.049731992 0.059438683 0.0078178495 -0.04257554 0.057688408
0.010347687 0.03904327 -0.060951605 -0.0004568398 0.043741286 0.030587837 -0.03144609 -0.048597626
-0.020113766 0.023142852 -0.0052197725 -0.03243342 -0.03257543 -0.04317546 -0.026756614 0.022119805
0.019614875 0.016276844 -0.041233912 0.010075763 -0.0549858 -0.0023409128 0.003934182 -0.047527425
0.046440244 0.043014564 -0.050856307 0.02980557 0.060647614 -0.042053737 -0.029684179 0.029780388
-0.046767667 0.0019861087 -0.047988325 -0.058712453 0.011856377 0.039654598 -0.014700897 0.026152946
-0.05373805 -0.042052522 -0.049279578 0.028503597 0.044989824 -0.0066688806 0.024589606 -0.0036895499
0.04571733 0.032697625 0.023217931 0.014513165 -0.018968396 -0.04731156 -0.0384195 0.058171846
0.040178187 0.007956669 -0.027807474 0.029035158 0.03427335 0.03733863 -0.008479521 -0.0034668073
0.024743378 -0.0546993 -0.016337104 -0.02725856 -0.041787744 0.053679645 -0.047298215 0.05912514
-0.034961917 0.04831267 -0.026934072 -0.016572714 -0.018195644 0.020571172 -0.053926587 0.015963852
-0.04708124 0.007067561 0.02004847 0.0128197 0.034985706 0.019027568 -0.025306351 -0.055698596
0.018234096 -0.045956112 0.002616182 0.034785464 0.05268766 0.023268372 0.04101687 0.02609285
0.017425478 -0.0026576072 0.02634029 -0.008505166 0.04193242 -0.05477135 -0.056018844 0.049585678
-0.015207864 -0.019347772 -0.0025068596 0.0031871945 -0.013864361 -0.007403508 0.029702313 0.05088813
0.024469376 0.046807587 0.047945075 0.04316272 -0.0029276237 0.0032491237 -0.04144846 0.025583372
00000000: 2e5a 26bd 0060 faba 0edc 66bd f003 933c
00000010: 80d2 f9bb 4817 4ebc f601 353d 1e56 25bd
00000020: 9252 0ebd a011 823c fa0a 3d3d e2ba 433d
00000030: 006e 38b9 d416 e13c 3e65 56bd 0091 d53a
00000040: 3a3c 2abd 2088 54bc 6eb6 413d 324d 5dbd
00000050: b6bd 69bd 1812 41bd 344d eabc 640d f63c
00000060: 00ab 0bba f889 353d f8a5 113c 882a 1dbc
00000070: fedc 7a3d 0277 36bd 881c d2bc a209 2c3d
00000080: ac23 993c 1846 7bbd 8c61 3abd 4067 de3b
00000090: 40cd 503c 48b0 813c 68be 0c3c ae1d 2cbd
000000a0: e088 9abb 1846 743c 8248 7e3d fec6 5c3d
000000b0: 7485 703d 3c52 0cbd 9063 e33c 60e3 c0bb
000000c0: cead 143d 9a48 0fbd 04cd e83c 387e 563c
000000d0: 7462 c63c 683e 2abd 3edb 1bbd ca4e 223d
000000e0: 5463 453d 76e5 6a3d f04b 9bbb baab 043d
000000f0: 9861 07bc d828 983c 0056 2a3d cca2 5cbd
00000100: 78f9 f1bc c80f 95bc b4cf 663d c8c0 a03c
00000110: 48c9 243c 7054 343c 802f a3bc 7083 1b3d
00000120: 0006 a43a 48aa cf3c feda 243d 881b 58bc
00000130: 4c80 7c3d 2882 483d a0a0 02bc 50eb df3b
00000140: 2853 f0bc e022 ce3c 34d5 22bd 8847 b5bc
00000150: c6ea 143d 4007 b2ba d08b e7bc aa45 4d3d
00000160: 3492 1f3d f0b0 d53b 50e8 c1bb 0cec 7f3d
00000170: 34eb 2c3d 803b 8abb c883 203d 2822 4e3d
00000180: 2477 7a3d c089 fcbb 5ea4 6c3d 40b1 f93b
00000190: b0b9 3cbd b83d 71bc c8d6 3dbc 089b c43c
000001a0: b0df eb3b 3a79 2d3d 90d2 6a3c a054 c13b
000001b0: a0c5 bc3b dc7c 98bc b45e 99bc da4a 4ebd
000001c0: 46bb 2dbd 38cb 243c 50a2 c33c 78c2 7bbc
000001d0: b00f 3abd 78dc a5bc 408d e9bb 50d2 ccbb
000001e0: 5065 bdbb b2fb 4c3d 280e e03c dac9 55bd
000001f0: 708d 9bbb 08b3 ed3c e8d6 02bd 087d 133c
00000200: 1c31 fabc 341c 463d 3cea bf3c c6b3 4b3d
00000210: fa75 733d 7016 003c b063 2ebd ae4a 6c3d
00000220: 5889 293c d6eb 1f3d 64a8 79bd 0084 efb9
00000230: 102a 333d 5893 fa3c 9ecd 00bd 4e0e 47bd
00000240: a0c5 a4bc 1496 bd3c a00a abbb e8d8 04bd
00000250: d06d 05bd c0d8 30bd b030 dbbc 9834 b53c
00000260: 60af a03c 0457 853c e4e4 28bd d014 253c
00000270: ca38 61bd 006a 19bb 50ea 803b 1eac 42bd
00000280: 2038 3e3d 0a30 303d b44e 50bd d02a f43c
00000290: a269 783d 8a40 2cbd 3c2c f3bc 00f6 f33c
000002a0: 748f 3fbd 6029 023b 688f 44bd 787c 70bd
000002b0: 4041 423c dc6c 223d 08dc 70bc b43e d63c
000002c0: 6e1c 5cbd 443f 2cbd 62d9 49bd 6080 e93c
000002d0: 4047 383d a086 dabb 2470 c93c 60cc 71bb
000002e0: 1842 3b3d f2ed 053d 8833 be3c a0c8 6d3c
000002f0: 9c63 9bbc c4c9 41bd c45d 1dbd 9a45 6e3d
00000300: e291 243d b05c 023c 80cc e3bc 24db ed3c
00000310: 3662 0c3d 64f0 183d b0ed 0abc 6033 63bb
00000320: a0b2 ca3c 600c 60bd 64d5 85bc 584d dfbc
00000330: a029 2bbd 30df 5b3d c6bb 41bd 342d 723d
00000340: 3a34 0fbd 82e3 453d d8a4 dcbc 80c3 87bc
00000350: 080f 95bc e084 a83c 20e2 5cbd a0c6 823c
00000360: 42d8 40bd 0097 e73b b03c a43c b809 523c
00000370: 2c4d 0f3d b4df 9b3c 444f cfbc 3624 64bd
00000380: ac5f 953c 7a3c 3cbd 4074 2b3b 347b 0e3d
00000390: 04cf 573d 509d be3c 4e01 283d acc0 d53c
000003a0: e0bf 8e3c 402b 2ebb 98c7 d73c 4059 0bbc
000003b0: 54c1 2b3d ec57 60bd 0474 65bd 5a1a 4b3d
000003c0: 682a 79bc 387f 9ebc 204a 24bb 40e0 503b
000003d0: 5827 63bc 2099 f2bb 4452 f33c 1270 503d
000003e0: 0074 c83c 50b9 3f3d 0e62 443d 64cb 303d
000003f0: 60dd 3fbb 40ef 543b dcc5 29bd 3894 d13c

model.2.bias f4 [128]
-0.03459666 -0.047969684 -0.051155284 0.041560017 0.031117454 -0.009555429 0.03167694 0.0021582767
-0.008533657 0.02055712 -0.011171371 -0.05435901 -0.019020528 -0.00032232702 -0.045528658 0.05847367
-0.03869704 -0.054788396 0.035205394 -0.028372549 0.051050678 0.059262194 0.049640447 0.060874484
0.0019916594 0.035898596 0.01619307 -0.011886686 0.04362783 -0.053371146 0.029909283 -0.039624743
0.027757838 0.06121754 0.03913953 0.04888595 -0.037317723 -0.011650942 0.016849503 0.032086663
-0.019780502 0.029280826 0.018863395 -0.053983264 0.037079476 -0.023633651 -0.03989169 -0.009761117
0.020612605 -0.015270859 -0.013376527 0.04376354 -0.054145813 -0.036678582 -0.0008666441 0.03731616
0.011090279 0.061205454 -0.007872902 0.02021622 -0.0045951307 0.0010199323 -0.010283306 0.051408365
-0.016358644 -0.05323395 0.024931297 0.0038886517 -0.0026830211 0.02562701 -0.048153557 0.050208703
0.01928164 0.04010261 -0.02327016 -0.03520657 -0.0029147267 -0.033270374 0.038858816 -0.04929538
0.045872703 0.00529629 0.005572878 0.028208472 -0.033669263 -0.008494832 0.039247766 -0.007045679
0.043895893 0.010447845 -0.030259974 0.0584393 0.049001336 -0.035628445 0.027919121 0.016059592
0.0019481406 -0.058837652 -0.034018233 0.06236366 0.01868061 -0.024307862 -0.0117274 -0.05608993
-0.058324963 0.033145927 0.02308102 -0.025700308 -0.04949312 -0.042762898 0.0018728375 -0.04432556
-0.04540939 0.017807916 0.01152195 -0.05971089 0.039386123 0.039086632 0.0148236975 -0.041682206
0.045558676 -0.039114594 0.019232765 -0.058735937 -0.011855595 -0.047588438 0.036094025 0.00987611
00000000: 3ab5 0dbd dc7b 44bd 3488 51bd d63a 2a3d
00000010: 08ea fe3c 608e 1cbc aebf 013d e071 0d3b
00000020: c0d0 0bbc 6867 a83c 2008 37bc 8ea7 5ebd
00000030: f0d0 9bbc 00fe a8b9 427c 3abd 1682 6f3d
00000040: ca80 1ebd cc69 60bd 8833 103d 8c6d e8bc
00000050: 841a 513d eabc 723d c853 4b3d 8657 793d
00000060: 8086 023b 680a 133d 54a7 843c 60c0 42bc
00000070: 18b3 323d b49b 5abd 5004 f53c 8e4d 22bd
00000080: 6864 e33c 3ebf 7a3d c650 203d a23c 483d
00000090: 78da 18bd 98e3 3ebc f807 8a3c 4e6d 033d
000000a0: b80a a2bc 58de ef3c 6887 9a3c 8e1d 5dbd
000000b0: a6e0 173d 5c9b c1bc 7865 23bd 18ed 1fbc
000000c0: c4db a83c a032 7abc 3829 5bbc 6641 333d
000000d0: 00c8 5dbd 483c 16bd 802f 63ba d4d8 183d
000000e0: 00b4 353c 92b2 7a3d 58fd 00bc 7c9c a53c
000000f0: c092 96bb 40af 853a 507b 28bc 9491 523d
00000100: 9002 86bc d80b 5abd b83c cc3c c0d8 7e3b
00000110: a0d5 2fbb bcef d13c aa3c 45bd a4a7 4d3d
00000120: 88f4 9d3c a242 243d 10a1 bebc c434 10bd
00000130: 0005 3fbb 8446 08bd 6c2a 1f3d f4e9 49bd
00000140: 04e5 3b3d 808c ad3b b09c b63b 7415 e73c
00000150: c8e8 09bd e82d 0bbc 44c2 203d 70df e6bb
00000160: 2ecc 333d 702d 2b3c c4e3 f7bc 0c5e 6f3d
00000170: a0b5 483d 22ef 11bd a4b6 e43c 688f 833c
00000180: c058 ff3a c0ff 70bd b456 0bbd 0a71 7f3d
00000190: 1408 993c 4821 c7bc 4824 40bc 8ebe 65bd
000001a0: 28e6 6ebd 06c4 073d 6814 bd3c 7489 d2bc
000001b0: 4cb9 4abd 2628 2fbd 007a f53a b88e 35bd
000001c0: 32ff 39bd e8e1 913c 90c6 3c3c 6893 74bd
000001d0: 5853 213d 4e19 203d 18df 723c f6ba 2abd
000001e0: bc9b 3a3d a036 20bd 088e 9d3c 1895 70bd
000001f0: f83d 42bc 18ec 42bd 54d7 133d 68cf 213c

model.4.weight f4 [12, 128]
-0.07510877 -0.014079906 -0.038887452 0.079092436 0.079706155 0.024200827 -0.0077152625 0.03521973
-0.059524793 -0.0773154 0.035413787 0.01482828 0.07650236 -0.008319795 -0.078899264 -0.04068251
0.063643135 0.023827575 -0.02614544 0.046525426 -0.07591149 -0.06658457 -0.022192836 -0.037019916
-0.027837455 0.077022694 0.058514975 -0.020450726 0.0590444 0.027999163 -0.026819851 0.03756409
0.07195745 -0.003268674 -0.07328168 0.049091168 0.05590523 0.06803132 0.021321394 0.0094378665
0.08112595 0.015586786 0.07348002 -0.07204089 0.030985668 0.07754063 0.020868368 -0.05112227
0.035003148 0.04566095 0.027338244 0.004954025 -0.06369967 -0.053239286 -0.0054013953 -0.055465978
-0.014336608 0.036335915 0.00811334 0.06445757 -0.02600906 0.047321074 -0.048102006 -0.067595966
0.06092871 -0.079485856 0.010017045 0.037913762 -0.0818879 -0.05199468 0.04873284 0.012905516
0.035818875 -0.0025611073 -0.06054929 -0.0010479838 0.059427775 0.0039385706 0.008747138 -0.014693856
-0.07956191 0.04441858 -0.06642338 -0.056909423 0.009110592 -0.037601173 0.017267033 -0.042814273
0.04678119 0.082937606 -0.036628023 0.013796844 0.0009342134 0.08512623 0.063479416 0.014219798
0.088215075 -0.06497451 0.013680764 -0.08782103 -0.017944328 0.08333128 0.002725564 0.010455646
-0.06579652 0.021515206 -0.024547346 0.068364196 -0.023030162 0.035507426 0.03265506 0.067062
-0.03349647 -0.067344606 0.08009087 0.05993218 -0.041030336 -0.053715684 0.016848937 -0.025213316
-0.05633137 0.06622676 -0.03287526 -0.065823905 0.060986526 0.037372805 0.037629627 -0.005318202
-0.08546727 -0.05085525 0.08420258 0.079838686 -0.0805488 0.063290305 -0.03280345 0.06325505
-0.008493051 -0.08354352 0.03246957 -0.010076068 0.027392872 0.009750463 -0.078926355 0.027909137
-0.004807152 0.057014577 0.032473817 -0.08091042 -0.05585801 0.02644512 -0.021798939 0.04077337
0.05126401 -0.022669956 0.03475959 0.08679473 0.03686931 -0.06743164 0.067143954 -0.062220506
-0.075773686 0.06293138 -0.02365473 -0.06084539 0.028073773 -0.058469195 -0.0016073138 0.07738497
0.055950366 0.083400466 -0.044821486 0.086332195 0.016584978 0.0725834 -0.012955517 0.026734501
0.0352616 -0.062938996 -0.0061681718 -0.016577661 -0.0009776503 -0.045964804 -0.06524709 0.071277596
0.056016825 0.025088616 0.021142967 -0.08511258 0.034187563 0.06598563 0.018195957 0.018022224
-0.03786336 0.07072153 -0.05254849 0.027578473 0.07383975 -0.075116746 0.08649462 -0.0034594238
0.011060357 -0.009276837 -0.038695127 0.042472176 -0.022284165 -0.04738745 0.008141868 0.017425902
0.04193934 -0.06859997 0.058201663 -0.08779165 -0.034389783 -0.024690442 0.01917155 0.016758122
0.03866134 0.031336248 0.07474198 -0.041257128 -0.07539766 -0.0013135672 -0.08311867 0.07916243
0.030833118 -0.01446005 -0.019784056 0.07630748 -0.08292308 0.07657651 -0.060778715 -0.059507746
-0.07967012 0.025693797 -0.022991292 0.049696915 -0.046708938 0.005198613 -0.02765635 0.08730384
0.044530638 -0.076658845 -0.07418694 0.018019602 0.087813236 -0.02217462 0.02461499 0.071039446
-0.023128465 -0.041790023 0.07015442 0.0061038733 0.047220655 -0.020756751 0.032495096 0.0031940117
00000000: a0d2 99bd 68af 66bc 7348 1fbd 37fb a13d
00000010: fb3c a33d d040 c63c 50d0 fcbb 9042 103d
00000020: 45d0 73bd 8957 9ebd 0c0e 113d 50f2 723c
00000030: 45ad 9c3d c04f 08bc f095 a1bd b4a2 26bd
00000040: 5557 823d 0c32 c33c f62e d6bc 7291 3e3d
00000050: 7c77 9bbd 7e5d 88bd c0cd b5bc 32a2 17bd
00000060: 600b e4bc 13be 9d3d 66ad 6f3d 4888 a7bc
00000070: 8ad8 713d 805e e53c 4eb5 dbbc cedc 193d
00000080: 6d5e 933d 4037 56bb b514 96bd d213 493d
00000090: e2fc 643d 0154 8b3d 34aa ae3c 48a1 1a3c
000000a0: 5d25 a63d b85f 7f3c b17c 963d 2d8a 93bd
000000b0: a8d5 fd3c 9fcd 9e3d 24f4 aa3c 9665 51bd
000000c0: 765f 0f3d fa06 3b3d 74f4 df3c 6055 a23b
000000d0: f974 82bd 7011 5abd 30fe b0bb 4b30 63bd
000000e0: 18e4 6abc f8d4 143d d0ed 043c 5502 843d
000000f0: f410 d5bc bed3 413d 9c06 45bd c16f 8abd
00000100: 6290 793d 7bc9 a2bd 881e 243c 764b 1b3d
00000110: d8b4 a7bd 60f8 54bd 169c 473d a871 533c
00000120: d0b6 123d 40d8 27bb 8802 78bd 805c 89ba
00000130: 8a6a 733d 200f 813b 2850 0f3c 80be 70bc
00000140: 5bf1 a2bd 42f0 353d fb08 88bd db19 69bd
00000150: 9844 153c b003 1abd 9873 8d3c 055e 2fbd
00000160: a29d 3f3d 31db a93d 4407 16bd 280c 623c
00000170: 00e6 743a a956 ae3d 7f01 823d 28fa 683c
00000180: 1baa b43d 5b11 85bd 4825 603c 83db b3bd
00000190: fcff 92bc 97a9 aa3d 609f 323b 284e 2b3c
000001a0: 53c0 86bd a840 b03c 8417 c9bc 8702 8c3d
000001b0: c0a9 bcbc 3c70 113d 50c1 053d cd57 893d
000001c0: 9833 09bd f8eb 89bd af06 a43d 727b 753d
000001d0: 6d0f 28bd fa04 5cbd c806 8a3c 288c cebc
000001e0: b9bb 66bd e5a1 873d 35a8 06bd afce 86bd
000001f0: 02cd 793d 3a14 193d 8621 1a3d 5044 aebb
00000200: 7709 afbd 984d 50bd 6772 ac3d 7782 a33d
00000210: c5f6 a4bd 599e 813d e95c 06bd dd8b 813d
00000220: 7026 0bbc dd18 abbd d0fe 043d 1816 25bc
00000230: 0467 e03c 68c0 1f3c 24a4 a1bd b4a1 e43c
00000240: 5085 9dbb 1e88 693d 4403 053d 5db4 a5bd
00000250: 5ecb 64bd 70a3 d83c b093 b2bc fa01 273d
00000260: 36fa 513d 58b6 b9bc 1260 0e3d 6fc1 b13d
00000270: 4604 173d 9a19 8abd c582 893d eeda 7ebd
00000280: 3c2f 9bbd 2be2 803d 90c7 c1bc 0439 79bd
00000290: f8fa e53c 657d 6fbd 80ac d2ba 037c 9e3d
000002a0: 362c 653d ddcd aa3d bc96 37bd efce b03d
000002b0: 38dd 873c 9ba6 943d 6043 54bc 5002 db3c
000002c0: 786e 103d 29e6 80bd 601e cabb e0cd 87bc
000002d0: 8024 80ba 9745 3cbd 44a0 85bd fdf9 913d
000002e0: e671 653d a486 cd3c 0434 ad3c 814f aebd
000002f0: 4208 0c3d 7923 873d b00f 953c 58a3 933c
00000300: 9c16 1bbd 73d6 903d 163d 57bd 40ec e13c
00000310: 4b39 973d cfd6 99bd 1724 b13d 80b7 62bb
00000320: 8036 353c e0fd 17bc c87e 1ebd 4ef7 2d3d
00000330: 488d b6bc 5819 42bd 7865 053c c4c0 8e3c
00000340: 96c8 2b3d 247e 8cbd de64 6e3d 1ccc b3bd
00000350: 4ddc 0cbd 9c43 cabc a80d 9d3c 5448 893c
00000360: 5a5b 1e3d 705a 003d 5312 993d 3cfd 28bd
00000370: 176a 9abd 002c acba 1f3a aabd e91f a23d
00000380: bc95 fc3c d8e9 6cbc 2c12 a2bc 1947 9c3d
00000390: 93d3 a9bd 25d4 9c3d 1af3 78bd 65be 73bd
000003a0: 162a a3bd cc7b d23c 3c58 bcbc fe8e 4b3d
000003b0: df51 3fbd 2059 aa3b 928f e2bc 5bcc b23d
000003c0: c265 363d 50ff 9cbd 53ef 97bd d89d 933c
000003d0: 6dd7 b33d 8ca7 b5bc 60a5 c93c 217d 913d
000003e0: e877 bdbc 042c 2bbd 1fad 8f3d 0003 c83b
000003f0: 726a 413d 100a aabc 9419 053d a052 513b

model.4.bias f4 [12]
0.00663653 0.023534834 0.042320214 0.009039141 0.05992704 -0.04178935 -0.027682777 -0.053229142
-0.044302415 0.06496688 0.07760129 0.032692805
00000000: 4077 d93b 20cc c03c f657 2d3d e818 143c
00000010: 0e76 753d 4f2b 2bbd fec6 e2bc cd06 5abd
00000020: 7376 35bd 5b0d 853d 6ded 9e3d e4e8 053d
